Neural_Networks/MNIST digits classifier/n-layer softmax/weights/W1.npy (npy, 62800 bytes, 1 tensors)

array f8 [10, 784]
0	0x3fa6a0117117616f	0.04418997293004422
1	0xbf64fc1a7fe0cec3	-0.0025616185730771026
2	0xbf8bfc199ded9f6f	-0.013664436466299638
3	0x3f9b34970c0915ed	0.02656780253371054
4	0x3fb64a1a73e2d6d8	0.08706822709322226
5	0xbfa9a317b84411b3	-0.05007242321338214
6	0x3fa68f8e5fe6dcb1	0.044063996512187294
7	0xbf9b4567bb39c954	-0.026631947328902797
8	0x3f9a308591f906a9	0.025575720819921575
9	0x3f4049b9a5ec62b5	0.0004970699772882311
10	0x3f81b24c0dd01cf2	0.008640855952775504
11	0xbf5a5ec7037c4a6c	-0.001609510754808109
12	0xbfa3c7322dcc109e	-0.038629119959325595
13	0xbfaf017f48a21186	-0.06055829774507786
14	0xbf40ec2771668b82	-0.0005164330093986177
15	0xbf68dae28971bd0f	-0.0030340599583308435
16	0x3fa38bd950a60727	0.03817633733252839
17	0xbfb54d539344d1f5	-0.08321115823202503
18	0x3f7451bbd689e4f2	0.004960759870862962
19	0xbf95642eed594cda	-0.02088998149549757
20	0xbfa4ff6576b627be	-0.0410110194598725
21	0xbf90ef5933decd89	-0.016538041869080842
22	0x3f84f98a802fe629	0.01024158672042848
23	0x3f80ed3bc1d293fd	0.008264986851211015
24	0xbfa3ef7f86c4359e	-0.038936600876790836
25	0xbfb0d4c0a4df46b3	-0.06574634576034093
26	0x3fb0b2d7b5b9fe2d	0.06522892176325774
27	0x3fa2f447eb5fb273	0.037019965631633144
28	0xbfb27e4dd0c97a48	-0.07223974559153945
29	0x3fa4e3239afcf956	0.04079543368287612
30	0x3fba66552d20d8b6	0.10312397338643361
31	0xbfa06c58124854ba	-0.032076599342113224
32	0x3fb8a7d52bebe129	0.09631092378902352
33	0xbf899c83d566bc25	-0.012505559873572445
34	0x3f92830128d51f27	0.018077867619722767
35	0xbfab52a94c75587e	-0.05336503084497311
36	0xbf9a0d1a30cc5851	-0.02544060633507456
37	0xbf8fa7638656f009	-0.01545598748895573
38	0xbf912488720395f9	-0.01674092479597353
39	0x3f802f025732bf0e	0.007902162824705818
40	0x3fbe4454f7c1e984	0.1182301621319422
41	0xbf934d4e952679e2	-0.018849590161716175
42	0x3fb844a9934b39bf	0.09479770513573892
43	0x3f9dbb2e414774b1	0.029034350141831925
44	0x3fba3a67b4a6c2d0	0.10245369110522096
45	0x3fa6fb6dc2d6ec2e	0.044886999162791916
46	0x3f8f3e4cfde471e2	0.01525554799860002
47	0xbf940d3fa7169d1f	-0.019581789563429482
48	0xbfacfca7a8023f1b	-0.056615103968509405
49	0xbf61ee4bdf4a348f	-0.0021888238791861257
50	0xbfae62f66593d92d	-0.05934877386055102
51	0xbfc0aa672e9f02cf	-0.13020028854773222
52	0xbfa34519648a3f7f	-0.03763655998511605
53	0xbf98fafffe9d8e9a	-0.024394988933080876
54	0x3fb89f0b37e63f60	0.09617681612712436
55	0x3fabebf7d24de5c2	0.05453466837111477
56	0xbf987574f1ce76d2	-0.023885562189767402
57	0x3fb01de2ef01b304	0.06295603118060106
58	0xbf7f64d675006190	-0.007664525721360241
59	0x3fa04876e4f2073c	0.031802859733046834
60	0xbf92108e27a30b1a	-0.01764127842831007
61	0x3fb75edf3faf118c	0.09129138283521437
62	0x3f715685e16dce72	0.004232905360243332
63	0xbfa4c83fc7406be9	-0.040590279648504986
64	0xbf501a9e4692cd04	-0.0009829087887681118
65	0xbfb1aa61be40fd60	-0.06900607008809834
66	0xbfb1992c846bc0a4	-0.06874349816257791
67	0xbfa1e96f5f90502c	-0.03498409310864789
68	0xbfb2cc05edca478c	-0.07342564635680854
69	0xbfc3acda3425a6bd	-0.15371253534549636
70	0xbfc3428d1e216604	-0.1504684826966668
71	0xbfc6130bed5945d3	-0.17245625581067134
72	0xbfc0beab5e3b6d4f	-0.13081876851252125
73	0xbfcac4a83e259fd0	-0.2091265014125825
74	0xbfc4a92db1f46e9d	-0.161412917987822
75	0xbfd0d4e6a5ad09c4	-0.2629944436959273
76	0xbfc504d6c06bc3a0	-0.1642101707034529
77	0xbf9da16939c1094a	-0.02893604674341902
78	0xbfbb23e3d8f5a4c2	-0.10601638838638208
79	0xbfbe2e36431436b8	-0.11789263856573029
80	0xbf9b4aaaae15fedd	-0.026652018428193414
81	0x3fbf814fa9119152	0.12306688192035622
82	0xbf72c39ef3de8310	-0.004581089886330117
83	0x3f9276ca815f8802	0.018031276842414463
84	0x3fb7d4a802edc3a8	0.09308862754347891
85	0xbf606b661e361229	-0.002004336785548473
86	0x3f968b1ef3697c91	0.022015079123204166
87	0xbf77a63094a31163	-0.005773725288410555
88	0xbf7755ad0cb1cdf5	-0.005696941351846165
89	0xbfc24e979edb0245	-0.14302344566933037
90	0xbfcd970a93b2b94e	-0.23117191516707652
91	0xbfc922f8b7c85789	-0.19637974714049403
92	0xbfc8fe31eddde2b8	-0.19525741686427067
93	0xbfd4655c15fe3036	-0.31868650577303315
94	0xbfd2707083863b06	-0.2881127628724446
95	0xbfd8d68e88515a83	-0.3880955058315651
96	0xbf98dfefb526f95e	-0.024291749412208012
97	0x3fb7d23b9b6739ce	0.09305164855979983
98	0x3f970c32b897a22c	0.022507469669934263
99	0x3fb9487e3cea0820	0.09876240718043094
100	0xbfa3645d8779ae72	-0.03787510184050981
101	0xbfc4caddb2664528	-0.16244097910797817
102	0xbfe40e59de894656	-0.6267518373881085
103	0xbfe02703b3d8dbe6	-0.5047625076903131
104	0x3f8d119fb784effa	0.01419377116018693
105	0x3fbb4872e7dbb4aa	0.10657423172570427
106	0xbfb78aeb13b35476	-0.09196347456902906
107	0x3fb06b0b82d7714b	0.06413337654470756
108	0xbf81cad16b445fd5	-0.008687625967056004
109	0x3f442dd25f11a083	0.0006158139423293605
110	0x3f97c6eb6a666868	0.023219755524771207
111	0x3f9b71096e8b413d	0.026798388835971954
112	0xbf964b235d4c7a08	-0.02177100426626491
113	0xbf7486f4ff7bd95b	-0.005011517547009649
114	0xbf385b88b85c57ea	-0.0003716667928171923
115	0x3fb0256b67e005cd	0.06307097707760718
116	0x3f9c607aa961ea9e	0.027711788738523972
117	0xbfc85c58b1dc8713	-0.19031819042816575
118	0xbfcac140b3bfba77	-0.20902260567477857
119	0xbfcb6b517c148c33	-0.2142125945912042
120	0xbfba456c6beae653	-0.10262181887346715
121	0x3fb44fd1005e5608	0.0793429017924937
122	0x3fad75e1ac581c04	0.05753998974619637
123	0x3fcd3c7366a6033d	0.2284073115552249
124	0xbfa06a92abdfc529	-0.03206308696816002
125	0x3fb8ec6e78d57879	0.09735765886350291
126	0xbfcdc4fc32a6f094	-0.2325740096401928
127	0xbfc3f1b786907e38	-0.1558141142895566
128	0xbfda073f61396d11	-0.40669235701143785
129	0xbfc0fbd97a560040	-0.13268583749231944
130	0x3fcd0b89e57cec5e	0.22691463189571243
131	0xbfc8329267a18a51	-0.1890433317194771
132	0xbfc7efa971dda877	-0.18700140056472822
133	0xbfc4e4890cb26d23	-0.16322434539765948
134	0xbfbf61f35e5786e4	-0.12258835843342869
135	0xbfe49ab7da373cf1	-0.6438864957835034
136	0xbfd7699c33ec5a15	-0.3658209330618843
137	0xbfb8b6f916232a74	-0.09654194632018137
138	0x3fa0e9d04cc07a58	0.03303385674393117
139	0xbfaecf7bc9d37a07	-0.06017672384927058
140	0xbf97b6238fdb7ce7	-0.023155742316586816
141	0x3f9cf6e7dba6429e	0.028285620480860467
142	0xbfba74115f3d8a62	-0.10333355498509314
143	0x3f97ad621c4bc237	0.02312234208779015
144	0xbfa4204173b89cc3	-0.03930859124766919
145	0xbfdc91e5281121e9	-0.4464047328260948
146	0xbfd662125f39e9b6	-0.34973582553325444
147	0xbfc81eebeae7e895	-0.1884436509133748
148	0xbfc18240b5002a77	-0.13678749883577598
149	0xbfa0ee8c0a9e04d5	-0.03306996945958366
150	0x3fcf0acb3867894f	0.24251690153239244
151	0xbfc7987a682eeec3	-0.1843407639224691
152	0xbfb3dc32d6df4843	-0.07757871385482056
153	0x3fc8a2ed921c2f81	0.19247216829569072
154	0x3fdd7ad7f12a52fb	0.46062277365972165
155	0x3fc9a896b50a2cd2	0.20045741882163398
156	0x3fd3c4e4e3002a29	0.3088924614718587
157	0x3fc7a4d2daec72de	0.18471751870756398
158	0x3fd52eb17710aee4	0.33097492816408036
159	0x3fc652744b1e47ea	0.1743913046635151
160	0xbfc3df508570a39e	-0.15525251880287966
161	0xbf9d0f6f0840a428	-0.028379187468235895
162	0x3fcf17194c839218	0.24289242015869728
163	0xbfe229372c9858c1	-0.5675311919210558
164	0xbfe3cfdbe6cbe288	-0.6191234119169886
165	0xbfc837bc8d626df7	-0.18920094398059437
166	0xbfba7c8b0544e2b9	-0.10346287611617812
167	0xbfb72ef8fafef0d4	-0.09056049468830746
168	0xbfa1355b9a1f0c13	-0.03361021286357171
169	0xbf82e6a99efbaa02	-0.009229016460683862
170	0x3fb0143e9b3889a6	0.06280890740939657
171	0x3fa86cfe54ecfdee	0.04770655428591995
172	0xbfc15f971a704f53	-0.13572968283608108
173	0xbfc902f53054efaa	-0.19540276393842976
174	0xbfc07d23aec05b29	-0.12881895096571697
175	0x3f8b2519ab2f7d51	0.013254356896082927
176	0xbfcdb3f29a5500df	-0.23205406699890482
177	0xbfe30e063a9bb6ef	-0.5954619545643406
178	0xbfc525358fdd9a1d	-0.16519803547562698
179	0xbf92cfef7f256783	-0.018371336112387403
180	0x3fa75b3718ed1235	0.04561779193185026
181	0x3f919987cb2201c8	0.017187234662289247
182	0x3fbd93daec50490f	0.11553734082579957
183	0xbf9002b17bb74567	-0.015635274101275878
184	0xbfc2cb5f2c9a8575	-0.1468314140120516
185	0x3fb9e01d8adde91e	0.10107597961715384
186	0x3fa14ba7e82a3c00	0.03378033360524313
187	0xbfca2a80af0b20dc	-0.20442207858128014
188	0xbfd612a5879a91af	-0.34488809816891836
189	0x3fd3a2044c6cc9ed	0.3067637201631033
190	0x3fe5f7ff4df1ac8e	0.6865231058449284
191	0xbfc0b68a6a99e4ea	-0.13057069974073637
192	0xbfe50f2e01816ce0	-0.6581029920011154
193	0xbfd81e5949c23d2f	-0.37685234263422535
194	0xbfccf94902b88aaf	-0.22635758049826424
195	0xbfc27bdf35a4e8a0	-0.1444052707609602
196	0x3f98ad3f4aa6a520	0.024098385745365936
197	0xbfa5318bcc49f12f	-0.04139363163719378
198	0x3f9ed5dcc904d5b1	0.030112695473879906
199	0x3f7111b4d55ffbca	0.004167276745646606
200	0xbfbad223d5a1e138	-0.10476898160584802
201	0xbfae235cb5e1a32c	-0.058863541796034674
202	0x3fc9a5dec2bd8f2b	0.20037445553600128
203	0xbfaaad5713d1e58d	-0.052103730363295055
204	0xbfe7bd53fe1b8350	-0.7418613398586817
205	0xbfcd36ac70cd4966	-0.22823100574403127
206	0x3fd0d5ebb672a1e2	0.2630566865650775
207	0x3fdcf5775ee48103	0.45248207346777763
208	0xbfdafc9e8aa05f48	-0.421668658616444
209	0xbfb60a5c8d9c1f3e	-0.08609560448905726
210	0xbfbe5c2dab90ad02	-0.11859403074838684
211	0x3fc0a7bc3a57509c	0.13011887406049005
212	0xbfc306d44d54064a	-0.14864591384689368
213	0x3fd228aef888953f	0.2837331225476482
214	0x3fe01cd1a505e911	0.503517935095518
215	0x3fda6bb8d13625a4	0.41282482558070854
216	0xbfc39ef9ccb471ef	-0.1532890557799784
217	0xbfca4a3b98ccde4d	-0.20539040528250255
218	0xbfb3fe9f346918f6	-0.07810397176317338
219	0xbfb25e8538169f6d	-0.07175476664872145
220	0xbfeb7bde424f6768	-0.8588706297989406
221	0xbfe26dc9887d38cb	-0.575901762562148
222	0xbfc584ebf90d7b5f	-0.16811895046972844
223	0xbfab07ca0c5b88b6	-0.05279380226944978
224	0xbf8c430730044eab	-0.01379972090993616
225	0x3f909aed591b1d9c	0.0162160001407564
226	0xbf9408904cca5978	-0.01956391781512809
227	0x3f88c9608ccc6601	0.012102846428706295
228	0xbfc7ed8aeada414c	-0.1869367262593279
229	0xbf5e75eaeeb38558	-0.001859168459127444
230	0x3fd374919dbcbbf1	0.30398979572322476
231	0x3fbb731067110bb9	0.10722448841356326
232	0xbf5918fb8204b325	-0.0015318351871186988
233	0xbfa09dff8f7d5685	-0.03245543123800324
234	0xbf6790c57866024a	-0.0028766495553898307
235	0xbfc5fcf05cb2a479	-0.17178158308277938
236	0x3fd5a79041058e88	0.33835226392532336
237	0xbfca7426bf2c8414	-0.2066696580377828
238	0x3fe2c04335a18468	0.5859695479849849
239	0x3fdd5393819d6c9c	0.45822608621319616
240	0x3fecda60716b2fd1	0.9016573157509759
241	0x3fd99099f472a7b6	0.39945076820242365
242	0x3fc61719665126fc	0.17257993217418022
243	0xbfb01b46b7b6e4a4	-0.0629162024041699
244	0x3f8fde0842a8f6b8	0.015560211691190914
245	0xbfd67cbeae3c1601	-0.3513638211737487
246	0xbfa397175d04c705	-0.038262109856431116
247	0x3fd30b8183cefd5d	0.2975772654717355
248	0xbfe9585490491f6c	-0.7920325105742285
249	0xbfe8ffaa27cc9199	-0.7812090661359888
250	0xbfcee3bc9fd4a1bf	-0.24132497600773026
251	0x3f7ae0d8de7e6f4a	0.00656208719729163
252	0x3f8b4adf550e2acc	0.01332640150373745
253	0xbfb53d5333adf7f3	-0.08296699535091516
254	0x3fb12c9b18a600e3	0.0670868811776049
255	0xbfa00e09ea7152e8	-0.03135710703705802
