Neural_Networks/MNIST digits classifier/n-layer softmax/weights/W2.npy (npy, 880 bytes, 1 tensors)

array f8 [10, 10]
000000 51 20 63 90 87 4c f3 3f 25 48 ff 4b 83 42 d0 bf
       1.2061839714169944 -0.25405962392426523
000010 87 3a 19 11 4a fc eb bf 6f 7b 6c 3a c3 eb ba 3f
       -0.874547036548237 0.10515995193825999
000020 60 c1 5f cd 70 47 e8 bf fa 1d 20 2e 92 55 c7 3f
       -0.7587207804881864 0.1822989201757393
000030 af ac cb 5a ef fd e6 bf a5 a7 ff 82 01 a7 f5 bf
       -0.7184979222633013 -1.353272926057323
000040 42 b2 88 30 c7 e1 d5 3f 53 42 70 fa e6 07 c9 3f
       0.3419054006542731 0.19555365780299158
000050 94 e5 fe d7 6f 67 e4 bf 02 f5 83 e8 e0 28 f7 3f
       -0.6376265734353859 1.4474801142344522
000060 4d ef 6b 6d a0 2e 94 3f e2 20 2e e9 be 7b db bf
       0.01970911662918633 -0.4294278409147535
000070 ce 43 f1 6c a0 20 d0 3f 48 aa 8f 3c 71 01 e9 bf
       0.25199137343321076 -0.7814260657153875
000080 78 25 02 e4 2e a2 ee 3f 92 89 e3 ad 04 f3 e4 3f
       0.9572977498329882 0.654665317179296
000090 84 e9 26 5a b6 2a e7 3f 26 5f 82 c2 29 e1 bd bf
       0.7239639054089797 -0.1167169666172155
0000a0 57 0f 95 69 75 b3 d1 3f 68 d3 10 d4 f3 cb ef bf
       0.27657828627365205 -0.9936465398701388
0000b0 b7 c2 9c e3 8a 49 e1 3f 37 21 28 9a 7b aa ba 3f
       0.5402273603013644 0.10416386140434929
0000c0 83 a4 56 b0 7f 4a b9 3f 44 bd 50 28 3f bf 7d bf
       0.09879301123750577 -0.007262465199388505
0000d0 3a d9 7f 28 14 71 fc 3f 67 96 6b e0 41 33 c2 bf
       1.7776071149833812 -0.1421892495920247
0000e0 29 6c a9 5c ac 36 de 3f 4a 3a 2b 7c 4f 56 d7 bf
       0.4720869927311378 -0.3646429741465097
0000f0 9b 52 c8 84 36 5b 93 bf 57 d7 89 bc e4 c6 f1 bf
       -0.018902637342835687 -1.1110579838545698
000100 a7 18 a7 e6 57 f5 c2 bf 54 a7 da ed 74 cf e2 3f
       -0.1481122852548584 0.5878243108356664
000110 4c 60 a6 9f a4 c3 e9 bf 7c 93 aa cc 51 e4 ed bf
       -0.8051322096025699 -0.9341210362805294
000120 f5 b0 28 a8 7f e4 ee 3f e6 75 a4 80 54 03 f3 3f
       0.9653929027895446 1.1883130097479522
000130 b8 02 ad 2c 14 88 e7 bf 97 4a 3b e4 8b 88 d8 3f
       -0.7353611824583686 0.38333413398974286
000140 15 83 c3 79 0d 20 cb bf a0 4e fc 1e 10 a9 d7 3f
       -0.21191566892141425 0.36969378496108085
000150 d9 d5 ba 2d e2 da db bf 5a df ae d3 fa 23 f3 bf
       -0.4352345892505958 -1.1962841290350839
000160 f9 a5 04 e8 81 e4 00 40 99 11 09 1e 6c d5 e2 3f
       2.1115759016436155 0.5885525309209242
000170 d3 0b 87 d6 3c f5 ec bf aa 7a 6c 3b 3a bf c3 3f
       -0.9049362363806445 0.15427329923200733
000180 c8 ad c6 8d 4e fb c3 3f 9a 42 2b 10 e3 b4 ec 3f
       0.15610677645359616 0.8970809284019936
000190 cc 53 25 3b e5 85 b3 bf 18 28 5e 37 12 3f ef bf
       -0.07626183217992305 -0.9764491158869104
0001a0 18 c2 97 5c 39 26 f0 bf 1b 40 4d 31 c1 fe f9 3f
       -1.0093320481211148 1.6246959615564325
0001b0 f3 56 3f 7d ea de bd bf ce ab 87 b0 43 cd b3 bf
       -0.11668267782018997 -0.07735083637059789
0001c0 d9 be f8 5e 24 d7 b5 bf 98 5f 71 19 ae e1 dd bf
       -0.08531405752796263 -0.4668994186845281
0001d0 b4 dc d9 dd 8e d3 d3 bf 53 8d 7d e0 8f ec e3 bf
       -0.3097874800218492 -0.6226271996096479
0001e0 2e fc ed 57 d1 7b d4 3f 39 9c ea 40 94 62 e3 3f
       0.3200572355926309 0.6057835834407178
0001f0 d6 f1 b0 d2 3c b5 ec bf 46 2e ab 0d e7 67 bb 3f
       -0.8971237292349155 0.10705417712886697
000200 32 3e c0 0f 8b 77 c3 bf 5a 33 c5 ca d5 3a fb 3f
       -0.15208566922272976 1.7018640442576811
000210 29 af cf d2 cc 78 d9 3f 0d d3 79 c6 d5 70 f2 bf
       0.3979980524734282 -1.1525476220096522
000220 27 59 62 eb 28 16 f7 3f d6 9c f9 22 c3 58 ce bf
       1.4429101175970318 -0.23708380897298892
000230 85 5e ea 53 d3 d0 c0 bf 4c bd 31 d4 05 78 c6 bf
       -0.13137284848629718 -0.17553780423211618
000240 f0 13 d9 cb 57 62 04 40 4d e8 a4 d6 be 36 dd bf
       2.5480190206167137 -0.45646639787049
000250 44 fa fa a0 bd 71 e0 bf dd 9d 58 58 db e2 f5 bf
       -0.5138843673847266 -1.3678849650403813
000260 3b cd a7 12 bb 6b f2 3f f1 4d 34 df d8 76 dc 3f
       1.1513014534692292 0.4447538547258026
000270 98 bf fb 49 e5 fc d0 bf 23 10 c8 01 78 88 f4 3f
       -0.2654355261320176 1.2833175725545594
000280 43 77 9f 2a 9c b2 df bf 3b e9 16 f1 cf 8f f2 3f
       -0.4952764908065214 1.1601104180868578
000290 63 66 0f e1 a6 22 f9 bf 8e f4 d8 0c 9f 5b d4 3f
       -1.5709599296009393 0.3180921197379768
0002a0 bc 09 42 25 c1 9f e6 bf f2 e1 81 28 c1 3f f4 bf
       -0.7070012786573936 -1.265565069419719
0002b0 e9 b9 56 23 3f a5 e0 bf 8a 93 be cc 3d b0 f2 bf
       -0.5201717081270633 -1.1680276868657722
0002c0 6c c8 5f eb 76 fa e5 bf 1e 47 a6 aa 79 14 e5 bf
       -0.6868242833281903 -0.6587494214056482
0002d0 d1 bf ca 6b 20 1f a0 bf 62 93 e1 9a 0a f8 d1 3f
       -0.03148747745342429 0.2807642471801072
0002e0 1c 1e 13 d6 47 4d 95 bf ed 80 fd ca a5 36 c2 3f
       -0.020802614632684166 0.1422927132762263
0002f0 54 cb 7b 96 8c df db bf 35 b0 0a b6 17 9a e9 bf
       -0.43551935859357127 -0.8000601344588235
000300 cd b9 6c e5 a8 84 fc bf c8 e6 17 41 bb 75 dc 3f
       -1.782387634458803 0.44468575817846245
000310 65 3d cc af b5 e5 e9 bf cd ce b1 89 62 13 04 40
       -0.8092907365370762 2.509465289820446
